weight.npy (npy, 1432 bytes, 1 tensors)

array f8 [163, 1]
00000000: c802 cbf8 e2f8 bfbf 8b38 8d09 bd0b 42bf
00000010: 2ef5 5929 9d87 94bf d32b 77a0 3352 a0bf
00000020: ae49 729d 1c79 a4bf 9087 ea1a 05f6 a8bf
00000030: f471 0153 97c3 b0bf 3cb8 6aef 1536 b5bf
00000040: 6c6e 03af 9679 babf 3cc4 7bf4 abbd c0bf
00000050: 50fa 888a 6bc8 be3f e10f e878 83cf be3f
00000060: e484 b7ee 3ec2 be3f 7024 be99 ca01 bf3f
00000070: 2cd8 2bef 3bc9 be3f 4835 0125 8e97 be3f
00000080: fd55 08fa 2783 be3f 84e6 cc79 ad6b be3f
00000090: 8648 c1b2 ab8e be3f 6a56 dd15 80b2 ba3f
000000a0: 93f0 baa2 2ff8 b93f 9424 30b4 986b bd3f
000000b0: 8fa4 628c 80da bc3f 51dc 8f0b c1ad bf3f
000000c0: 0c70 bad8 4f03 c43f 2f20 7277 17ed c43f
000000d0: 68a6 cb0f fa18 ca3f c1f5 4129 423f c03f
000000e0: b5b1 7d81 e668 c33f 2622 0d31 3367 c33f
000000f0: 068e b44c ec0f c33f 59c3 aa71 a840 c33f
00000100: f12a c889 fc08 c33f ccf0 aa50 592c c43f
00000110: 7dc4 e42b 3e83 c43f 84e2 8fbf 8b6f c23f
00000120: 818a 9b51 f337 bf3f 33c8 6a8a fd17 df3f
00000130: b4f6 36a7 2257 d73f a697 6c89 a71a d93f
00000140: d931 c19d 9d43 db3f 34ce 3ef8 90c4 e13f
00000150: aaad 33c9 3c8c d53f 562c b425 08ad cd3f
00000160: 01ca 4b9c 8f40 c53f f6cc a4d2 d0d3 c03f
00000170: 169e e780 229d cbbf 5a8f e58f 8a53 c6bf
00000180: 738d ec80 c3ce c2bf 5c2f 119b 6a28 bdbf
00000190: 2fb0 c670 eb86 b4bf 495b 085f 7dd6 abbf
000001a0: 7f7e e7d7 bea9 86bf c897 3d51 cb9a 6f3f
000001b0: 6b06 727d 7351 a4bf ff14 df41 42a6 bcbf
000001c0: 61aa fdc5 bf35 b7bf 1fea 34d5 0cfe b0bf
000001d0: 02a1 83cd 446e a3bf 5f8c 40a0 c198 5bbf
000001e0: 31f3 ff32 7f40 7dbf 5c86 9715 d1a2 913f
000001f0: b3c6 3efe 6de7 963f 6535 119d 065a 93bf
00000200: 4bfd 01d9 d10d babf 101d 79ad 25a8 a6bf
00000210: a5ab 96d8 3519 26bf 9351 80e1 f452 953f
00000220: f904 0bc5 9f34 a33f 0c8f 1425 acb2 aa3f
00000230: f9d5 2735 c06d b53f 8dcb 92f0 a2a9 bb3f
00000240: ff4b 84b4 435f c03f e3e9 65bd 1fd7 b23f
00000250: 298e e15c 0cd2 ac3f 5a5d 0b20 8848 a23f
00000260: 7a2d 8062 68d8 a03f afa5 e5db efe2 703f
00000270: fce5 dad2 4d60 3bbf fe92 3f67 2ccd 8b3f
00000280: 1144 434d f1fc a93f 23ea 2dbf 968a b03f
00000290: 44dd 241e f813 acbf 3b4f 55dc 84de 89bf
000002a0: 5423 50af a907 95bf db6c a231 00a9 96bf
000002b0: 0494 01e0 dac5 9bbf f466 eb0a 94dd 52bf
000002c0: eff0 518f 4e88 713f cb76 74c0 8e6e c43f
000002d0: fee5 e926 5c11 d43f a725 4360 5b1d cbbf
000002e0: 2aa9 ec11 4f62 a33f 621d 6fcf 043f dabf
000002f0: 6c44 6193 383b b53f bc89 4ca6 b6ac dabf
00000300: 9a86 4fd4 e645 a3bf 1d8c 44cd 744c dabf
00000310: 29eb 7535 eed1 953f ef1e e9be 680a e4bf
00000320: 8529 4b20 8c4c b2bf 78c1 0ced ec59 a0bf
00000330: 34ad 9d3b 2bde 87bf d2c2 410b cf77 883f
00000340: 6b50 26af b3c0 a53f ad63 6e92 73e9 b23f
00000350: 1f26 18a8 b90a bb3f f46a 11e5 2730 c23f
00000360: a963 0259 0aa0 c63f 5ed5 dfcc 15ff de3f
00000370: 8bb0 5d27 a481 d83f dc9b cd0e f894 d13f
00000380: f0ff ce9b 5d55 d33f 95a9 b37d 1505 d53f
00000390: 7b3c 6ef3 aea7 dc3f b9eb 19e7 f3bc e03f
000003a0: f35e 8267 2b55 e53f cfa2 f4f9 fc24 e63f
000003b0: 9d8c 989d a05b bf3f d936 22d4 181c bf3f
000003c0: 2cf9 820a 3edd be3f 8022 8b89 eb30 bf3f
000003d0: 30ab fd54 b2c1 be3f cbf3 b43d 1bb1 be3f
000003e0: 0e42 f871 fdbf be3f 8682 2db0 9d11 be3f
000003f0: 1991 bc44 617e bd3f b903 6a64 d453 703f
00000400: 57c8 26ad ccfb 683f 09cc 67c4 05f6 443f
00000410: ba1c bbcd f453 463f 16aa 170b d301 71bf
00000420: ae11 bd55 445f 75bf 0507 237b 3c5e 7ebf
00000430: 638e cf29 ea0a 6fbf 0e78 5459 2cd5 5f3f
00000440: 8e97 2939 a3d8 63bf f891 0b53 64b2 50bf
00000450: e8d3 f42e b95f 61bf bda1 0e38 2f89 61bf
00000460: 7aa5 bd8b 99f9 503f 77f9 626e 6716 283f
00000470: eaca 6cd0 daf7 363f b5f2 21d1 da1c 643f
00000480: 0fbf 6c22 0a1f 783f 996b d690 b52b f3bf
00000490: f3ac def1 f39d e4bf 5c16 efb4 af12 c3bf
000004a0: b40f 12d8 4658 b4bf 5aae bf07 a386 bc3f
000004b0: a384 e54b 6b4c d53f 490b 81d7 c63b 9dbf
000004c0: 8cdd 8748 8b2a d5bf 5e80 35ba 8484 c4bf
000004d0: 10b1 8375 0710 f63f 80e3 5869 f7a6 e13f
000004e0: 093d 3b16 104a d63f 4106 867b 72a2 c43f
000004f0: 6911 b5cd 71c4 cebf 6021 c846 a626 e5bf
00000500: 945c 9ef9 3451 e3bf 6197 ffbd 6420 ecbf
00000510: 4d0f 6311 7a2a d1bf
-0.12489145826385617 -0.000550715735792699 -0.020048576020134927 -0.03187714895064855 -0.03998650953248571 -0.04875198319974949 -0.06548448349480634 -0.08285653205050009
-0.10341779492176223 -0.1307883209006223 0.12024566776470036 0.1203539056951395 0.12015145614670392 0.12112108472332905 0.12025808896200435 0.11950004962382821
0.1191887841635761 0.1188305303920974 0.1193644820607763 0.1042861989384051 0.10144326899438942 0.11492304228899491 0.11270907809616147 0.1237450268962317
0.15635107119021574 0.16348546345057133 0.20388723155274424 0.12693049444707863 0.1516388065605391 0.15158691306193467 0.14892343278289405 0.15041070509098622
0.14871174552566616 0.15760342062811217 0.16025521414988822 0.1440291104661534 0.1219474863278638 0.48583925740524875 0.36469332055626613 0.39225185795145945
0.42600193410615145 0.5552449081937483 0.3366844143735884 0.23184301224714216 0.1660327447094261 0.1314641026052425 -0.21573287290742432 -0.17442447687346424
-0.14693492694014373 -0.11389795575922562 -0.08018371108363519 -0.05437080178324167 -0.011065951312900111 0.0038579913179317173 -0.03968392282787366 -0.11191190822781392
-0.09066389640580887 -0.06637649731866489 -0.03795065888135875 -0.0016843691710242343 -0.007141587135262737 0.017222659056534403 0.022367209093949025 -0.018898108803388953
-0.1017733721546296 -0.044251611162105076 -0.00016859800625232155 0.020824266685012537 0.0375108650237141 0.05214441254272914 0.08370591447586397 0.10805719731687997
0.1279072410039532 0.07359503149010709 0.05629004129221144 0.03570962325255307 0.0329010601272683 0.004122673939812512 -0.0004177274703170695 0.013574931050194913
0.0507579237761392 0.06461469809975333 -0.054839852981269505 -0.012631452535664436 -0.020537043881663067 -0.022129061726997228 -0.027121944353343266 -0.0011514611939475424
0.004280382990256223 0.15962395093168022 0.3135595684067026 -0.21183340263659753 0.03785941213421247 -0.41009636170607255 0.08293489072936361 -0.4167915939343876
-0.03764268247301779 -0.41091651960067727 0.021308633816697373 -0.6262706497882088 -0.07148052013795876 -0.03193607705759666 -0.01165422225650179 0.011947267085106548
0.04248582375581197 0.07387468647938418 0.10563240388741989 0.14209459958041004 0.17675904604109619 0.48431916243801776 0.3829126724656439 0.2747173447191338
0.30208530631716624 0.32843529964034107 0.44773458263893645 0.5230655206390714 0.6666466733613262 0.6920151597924703 0.12249187324100537 0.12152247599643874
0.12056339031821456 0.12184021099086273 0.12014307570431693 0.11988992935671587 0.12011703522171777 0.1174562983628765 0.11520965507640248 0.0039861961910227445
0.003049754866162362 0.000639679733295374 0.0006813950853591579 -0.0041521304969856145 -0.005217806752459015 -0.007414089445036747 -0.0037893842222603154 0.001942914304272406
-0.0024226367907428997 -0.001019094441454203 -0.0021208397735343783 -0.002140609955365329 0.0010360717269242968 0.00018377316081870005 0.00035046665327624507 0.0024551652687122235
0.005888976657658209 -1.1981712014882986 -0.6442813610096024 -0.14900776228585044 -0.07947199607048 0.1114293950956208 0.332789253347139 -0.02854834261257658
-0.330721684294496 -0.16029414264903868 1.3789133634955455 0.551631646877567 0.3482704369643704 0.16120749503538614 -0.24037001175214393 -0.6609679586845623
-0.6036629557956013 -0.8789542876154252 -0.2682175798220115
